.dart_tool/chrome-device/Default/optimization_guide_prediction_model_downloads/9ff4fdd6-d689-41f4-a392-3ae8590d13aa/model.tflite (tflite, 410376 bytes, 166 tensors)

context_transformer_0/bottleneck_input/norm/add f4 [32]
00000000: a1ca de3c bf6f 97bd 03cc 863d 960a 113d
00000010: 08f3 b73d 7666 dfbd c42a 12be 1551 82bd
00000020: 6eea ec3c e98b 933c b0c3 043e 20e5 c7bd
00000030: 00d0 003e 4c55 c63c 3828 813d b494 953d
00000040: cd6f a9bc 0432 983c ca46 583c 42f9 173e
00000050: eeaa 80bd 8e96 2a3e 6608 153d d463 423e
00000060: 964f d83d ca7e 1f3d 781f 6b3d a46c 17bd
00000070: 0cdc 14bd 1945 45bd b376 293d 08fd 41bd
0.02719623 -0.07394361 0.06581881 0.035410486 0.089819014 -0.10908215 -0.14274126 -0.063631214
0.028920379 0.01801105 0.12965274 -0.09760499 0.12579346 0.024210595 0.06306499 0.073037535
-0.020683194 0.018578537 0.013200471 0.14841178 -0.06282602 0.16658995 0.036384962 0.18983394
0.10562055 0.038939275 0.057403058 -0.036968842 -0.036342666 -0.0481616 0.041372966 -0.04736045

context_transformer_1/bottleneck_input/norm/add f4 [32]
00000000: c014 b03d a442 843d dc79 cb3d 46b7 7abc
00000010: c8a5 293a 0e24 a63c 1072 e23b 133b 973c
00000020: 2a15 903e 0a28 26be 46cf fdbc 1812 2e3e
00000030: fd05 9bbd ae9f 6e3e 4c33 923d 741e 06bd
00000040: 236e 2f3d a7f5 1e3e 3898 c13d f40b f5bd
00000050: 748f 853c 4068 83bb 00a1 5f3d b4c1 11bb
00000060: 8013 b3bd 746e 1d3d 9c93 47be 8269 59be
00000070: c960 843b 6650 b93d 8c1b ecbc c0e8 17bc
0.08597708 0.06458023 0.09935352 -0.015302485 0.0006471542 0.020280864 0.00691057 0.018460786
0.28141147 -0.16226211 -0.030982625 0.1699909 -0.075695015 0.233031 0.0713869 -0.032743886
0.042829644 0.15523396 0.094528615 -0.119651705 0.016303755 -0.0040102303 0.0545969 -0.00222407
-0.08743954 0.038435414 -0.19489902 -0.21231654 0.004039858 0.09048538 -0.02882173 -0.0092718005

mention_transformer_0/bottleneck_input/norm/add f4 [32]
00000000: 1eb9 1e3d 3883 dfbc fe5a f0bd 9063 f43b
00000010: a07b 7fba 6e2d 09bc 14fa 90bd 9a8f b9bc
00000020: 788d 9f3c 80bd 603c 38c2 cbbc d62b a2bd
00000030: 39e3 193d ba5f 553e 46a2 57bd 142b b2bd
00000040: acb6 bfbd a79e f1bd 7339 8ebe 404a a43d
00000050: 8b9a e0bc 11f5 c6bd 04f2 f13d c9fd 253e
00000060: b127 09be d3fb 60be cdf9 883c 5f47 7cbd
00000070: fe1a 2dbd a823 d13d 9889 463e 483a bdbd
0.03875076 -0.02728425 -0.117361054 0.007458158 -0.00097458996 -0.008372648 -0.070789486 -0.022651482
0.019476637 0.013717055 -0.024872884 -0.07918517 0.037570212 0.20837298 -0.05264499 -0.08699623
-0.09361014 -0.11797839 -0.27778205 0.080219746 -0.027417442 -0.097147115 0.11813739 0.16210093
-0.13394047 -0.21971063 0.016720677 -0.061591502 -0.04226207 0.10211879 0.19388425 -0.09239632

mention_transformer_1/bottleneck_input/norm/add f4 [32]
00000000: bbc1 973e aadd 283e 1ecb 8d3d 2fc1 bfbe
00000010: 09e4 a53e cff3 9c3e 02b1 d63d 8fdf 6c3d
00000020: 3a79 16be 431b a0be d580 133d 4dfe 183e
00000030: c920 9f3e ce3c 973e 7a0c a1be dd18 f93d
00000040: 1064 193b 910b ffbd 10f4 b03e f715 a4bd
00000050: 0dda f6be e2eb ae3e 0e41 f43e 3ac9 8d3d
00000060: b369 01be 68dc c9be 11d3 b03d 266d 26be
00000070: 8d32 bc3d 29b0 2fbe 258e 043e 7086 9cbe
0.29639992 0.16490808 0.06923507 -0.37452075 0.3240054 0.3065476 0.1048298 0.05783039
-0.14694682 -0.312708 0.036011536 0.14940758 0.310797 0.29538578 -0.3145483 0.121629454
0.002340559 -0.12453378 0.34561205 -0.08012002 -0.48213235 0.3416434 0.47705883 0.069231465
-0.12637977 -0.3942597 0.08634008 -0.16252574 0.09189329 -0.17157044 0.12944849 -0.30571318

context_transformer_0/attention/value/add;context_transformer_0/attention/value/einsum/Einsum;context_transformer_0/attention/value/add/ReadVariableOp/resource f4 [32]
00000000: 82f5 833d 4fd5 91bd 69a3 f8bc 8909 763d
00000010: 9220 22bd 39d2 acbd 0595 953d 8693 b33d
00000020: d7b3 ca3c d25f 723c 85a2 34bd 7440 9d3d
00000030: 5d5e 82bc 5e2a 15bd 6578 8c3d 253c a13d
00000040: 2708 6b3d beaa 68bd 78d4 80bd 4ecf 1e3d
00000050: 3596 41bd c3ff 55bd 0219 233c 24a2 7abc
00000060: 7608 1d3b a098 4abd 6657 c3bd 682d cabc
00000070: 76de 5f3d a477 63bd 082d a1bc 3cda d03d
0.06443311 -0.071207635 -0.030351358 0.060067687 -0.039581843 -0.08438534 0.07303814 0.08768372
0.024743957 0.014793353 -0.044100303 0.07678309 -0.015914137 -0.036417358 0.06858901 0.078728
0.05738082 -0.056803457 -0.06290525 0.03877192 -0.04726239 -0.052245867 0.009954693 -0.015297446
0.0023961342 -0.04946196 -0.09538154 -0.024679855 0.054655515 -0.05553402 -0.019674793 0.10197875

context_transformer_0/bottleneck_input/norm/mul f4 [32, 32]
00000000: a5ef c23e 55eb c83b 2219 55be a587 903e
00000010: a96b fc3e 677c 073f af96 53be 9473 2b3e
00000020: 1817 76be 2e2f 0fbf 2c91 473e 7ce2 5fbd
00000030: 2453 b43f a76a e4bd d6dd b23d 8198 913c
00000040: 2c3e 03be 1ed2 a03e 0b20 b33e da1f 8cbf
00000050: 65b9 053f e900 ab3e ef8a f03e 951b 2e3d
00000060: 5d95 083f 6cfd d4bc f90e 2dbe 2f0f c73e
00000070: b8ff e03d 2dd9 44bd f9a7 91be 977c 28be
00000080: eacb 84bc d10f c3bd f5b7 5bbd 4fc9 b9bd
00000090: 4dbb a3bb 805b 87be 533e 31bd 8be6 15bf
000000a0: 0a6e a2bd 184e d13d 070e debe a5b2 8fbe
000000b0: fde9 a4bd e51b 383e fa42 49be ed65 c9bc
000000c0: 7404 853d d62e 16bd ea9d 5dbe 089e ebbd
000000d0: 1de1 683d 98f5 07be 1fa7 b7bd 0969 173e
000000e0: c5f7 b73d 3504 963e 6908 5abd 75ba 0c3d
000000f0: 73aa 353e 3671 8e3c 2217 c53d 4b10 5c3e
00000100: 867e 97be d5e0 033e 9c27 e7bd 8168 a9bd
00000110: 8410 a2bd e95b b73d 7f0b cabb a0ea cc3e
00000120: bd55 6c3e 6322 2a3d 2c40 923e 7b16 853d
00000130: a5e3 eb3c 72ae 50bc d61e efbd 0a69 4d3d
00000140: 6a3b 94bb ecf0 283e 1484 1c3e 52c5 d0bc
00000150: 6161 c4bd 6bb3 d93d a539 a6bd cb40 e0bd
00000160: 0a83 8a3d 2182 e0bd 802d 8bbd 8314 623c
00000170: 906a cabd fb06 cd3d 1f89 133d 253e f0bd
00000180: cad4 26bd c93d 6cbc a3fe 33be 80fb c73e
00000190: 35ff a53e 71aa e83d c0bf 273e ccd2 843e
000001a0: b969 773d f5ca d03c 969d ba3d e759 1d3e
000001b0: 9f06 92be fccc 77bc 5f57 a8bc 8be3 fb3d
000001c0: 034d 32be 8a9f bf3e 582e f83e 351b c13d
000001d0: ac76 9ebc 0a87 99bd 0ceb fc3d 3a09 da3d
000001e0: 779a 3d3e ebf8 e23d 9546 3e3e e085 7dbe
000001f0: 6cd3 d0be 4733 193f 0c35 053e 5eed 6f3d
00000200: fddd 5a3d 46d8 4d3e bb80 863e 31aa 37be
00000210: 7734 863d 125c c1bd 5649 94bd 66f1 b4bd
00000220: 857d 2e3e 1eae 28be a8d1 223e 6ef2 06be
00000230: 9bf3 9c3e 6be5 e5bd 0738 343e a791 0d3e
00000240: 12b7 b73e d4eb 97bc a972 9f3d 668c 9f3d
00000250: e180 84bd c6b2 a93e 515c 8b3e ac85 193d
00000260: 032d a6bc 0ce7 e0bc 0e6a 81be 3cbf aabe
00000270: 455e 683e b71f 3dbe 6994 7b3d dd1c 4e3d
00000280: a6ea 6cbc f78f 4bbe b3c4 bebd 184f 0bbf
00000290: 44cb f1be 970b c0be 34c5 ab3d f1e9 a2be
000002a0: 2876 723e a9e5 2d3f 037c 03be b621 bb3e
000002b0: e906 3c3e c644 403f e9a4 a7bd 8a5c 42be
000002c0: 5872 09bf e3c0 76be 7d44 47be d681 2abd
000002d0: 20da e83d ec3c 623c 6d10 3ebc f97f 37be
000002e0: 53c7 db3d 6f10 b2bc a38f 413f f6a5 e43d
000002f0: 7019 f7bd 0f8b 443e ac33 e73e 4384 ea3e
00000300: 2c71 1f3e 13ba d5bd d306 fabc 2f33 503d
00000310: 13de 8d3b 28b9 8dbd b60e f0bb 1f3e e5bd
00000320: b41b 0dbe 1126 99bd f513 78bd c40f 35bc
00000330: 37ee 19bd 37cc c7bd 3555 c93c ecdf e4bc
00000340: fe04 cbbd 50de 1ebd b463 ae3c fd26 c83c
00000350: ee98 203c 1379 7fbd 1b90 d5bc f58a b13c
00000360: 1d28 03bc 9303 f4bd 6353 dbbc 9e98 413d
00000370: fdae cbbc ae72 a43c 73a6 5ebd 254e 083d
00000380: 35e7 e63d 149e 15be 2c9f 0cbe 1cba 2dbf
00000390: ff3e 7b3d 30f8 183d 81f2 3c3e 1d1d 96be
000003a0: 52a2 b2be 6c25 66be 350d b9be b5dd 80be
000003b0: 6904 a03d 75f8 f2bd bbee 5e3c 6087 4bbe
000003c0: e698 aebe 4379 9ebe 7c8e a6ba 5119 033f
000003d0: 0ec3 6f3e 7e35 db3d 8010 88be 4f2b 27be
000003e0: 07f1 973c 369b 0cbc 380b e8be 8d59 873d
000003f0: 5da5 ba3d 3f37 03bf ec7c 8abe eb7c 8dbe
0.3807346 0.0061315694 -0.20810369 0.2822849 0.49300888 0.529242 -0.2066295 0.16743308
-0.24032247 -0.55931365 0.19488972 -0.05465935 1.4087873 -0.11153155 0.08733718 0.017772915
-0.12816685 0.31410307 0.34985384 -1.094722 0.52236015 0.33399132 0.46980998 0.042506773
0.5335291 -0.025999747 -0.16900243 0.38878772 0.109862745 -0.048058677 -0.28448465 -0.16453777
-0.016210515 -0.09524501 -0.053642232 -0.090716 -0.004996693 -0.26436996 -0.043272328 -0.58554906
-0.079311445 0.10219973 -0.43370077 -0.28065982 -0.08052442 0.17979391 -0.19654456 -0.024584735
0.0649499 -0.03666576 -0.2164227 -0.115047514 0.05685531 -0.1327728 -0.08967423 0.14786161
0.08982805 0.29300085 -0.053230677 0.034357507 0.17740802 0.017387968 0.09623553 0.2149059
-0.29588717 0.12878735 -0.11286852 -0.08271886 -0.07913306 0.08953077 -0.006165921 0.40022755
0.23079582 0.0415367 0.28564584 0.064984284 0.028795073 -0.0127369035 -0.11675803 0.050149
-0.0045236843 0.16498154 0.15284759 -0.025484715 -0.09588886 0.106299244 -0.081164636 -0.10949858
0.06763275 -0.1096232 -0.06795788 0.013798836 -0.098836064 0.10011097 0.03601944 -0.11730603
-0.040730275 -0.014419028 -0.17577605 0.39059067 0.3242127 0.11360634 0.1638174 0.25942075
0.06040356 0.025487402 0.091120884 0.15366326 -0.28520676 -0.015124556 -0.020549474 0.1229926
-0.1741219 0.37426406 0.48472857 0.094290175 -0.019343697 -0.0749646 0.12349519 0.10646291
0.18515955 0.110826336 0.18581612 -0.247581 -0.40786302 0.5984387 0.13008517 0.05857598
0.05343436 0.20102033 0.2627009 -0.17936017 0.065529756 -0.09441389 -0.0724055 -0.088351056
0.1704007 -0.1647267 0.1590029 -0.13178417 0.30654606 -0.11225399 0.17599498 0.13825093
0.3588186 -0.018545069 0.077855416 0.07790451 -0.06469894 0.33144206 0.2721887 0.037480995
-0.020285135 -0.027453922 -0.25276226 -0.33349025 0.22692211 -0.1846913 0.06142083 0.050320495
-0.014460241 -0.19879137 -0.09314861 -0.5441756 -0.47225392 -0.37508842 0.08387223 -0.31819108
0.23677886 0.6792856 -0.12840275 0.36549157 0.18362011 0.7510494 -0.08185751 -0.18980613
-0.536901 -0.24097018 -0.1945972 -0.041627727 0.11369729 0.01380847 -0.011600596 -0.17919911
0.107313775 -0.021736352 0.756098 0.11164467 -0.12065399 0.19193672 0.4515661 0.45804033
0.15570515 -0.104358815 -0.030520832 0.050830062 0.004329452 -0.069200814 -0.0073259724 -0.11193489
-0.13780099 -0.07477964 -0.060565908 -0.011051122 -0.037580695 -0.09755748 0.024576763 -0.027938806
-0.099130616 -0.038786232 0.021287777 0.024432654 0.009802086 -0.062371325 -0.026069691 0.021672705
-0.008005169 -0.11914744 -0.02677316 0.047264688 -0.024863714 0.020074215 -0.054357957 0.03327765
0.11274568 -0.14611083 -0.13732594 -0.67862105 0.061339375 0.037346065 0.18451883 -0.29319087
-0.34889466 -0.22475213 -0.3614289 -0.2516915 0.07813341 -0.11863796 0.0136067225 -0.1987586
-0.34101027 -0.3095189 -0.0012707259 0.51210505 0.23414251 0.10703562 -0.26575089 -0.16325115
0.018547548 -0.008581927 -0.4532106 0.06608877 0.09113572 -0.51256174 -0.27048433 -0.27634367

context_transformer_0/kq_shared_bottleneck/norm/mul;context_transformer_0/kq_shared_bottleneck/norm/add;context_transformer_0/attention/key/einsum/Einsum;context_transformer_0/attention/key/add;context_transformer_0/attention/value/einsum/Einsum;context_transformer_0/attention/key/add/ReadVariableOp/resource f4 [32]
00000000: e631 0e3e 01e4 c13d 5a8c b53d 219f 10be
00000010: e446 233e 75fa d93d 056a 01be 0f5a 233e
00000020: da88 d23d 9ab0 38bd f491 073e 6ea7 ed3d
00000030: 83b8 01be 2096 c33d f2ed c83d 42be b83d
00000040: eec3 f7bd f55e 103e 44ba aabd 1697 a2bd
00000050: 8177 15bd a87e e8bd b0b3 56be a1a0 3abd
00000060: 26b4 dc3d 73f3 eebd ae58 2d3e e8a7 04be
00000070: 1245 b13d cdd6 2a3e b4d0 0b3e 6fc3 06be
0.13886222 0.094673164 0.088646606 -0.14123203 0.15945011 0.10643474 -0.126381 0.15952323
0.102800086 -0.045090295 0.1323927 0.116042 -0.12668042 0.095501184 0.098110095 0.09020664
-0.120979175 0.14098723 -0.083363086 -0.079389736 -0.03649092 -0.11352283 -0.20966983 -0.045563344
0.10776548 -0.11667528 0.1692836 -0.12954676 0.08655752 0.16683502 0.13653833 -0.1316049

context_transformer_0/kq_shared_bottleneck/norm/mul;context_transformer_0/kq_shared_bottleneck/norm/add;context_transformer_0/attention/key/einsum/Einsum;context_transformer_0/attention/key/add;context_transformer_0/attention/value/einsum/Einsum;context_transformer_0/attention/key/add/ReadVariableOp/resource1 f4 [32, 32]
00000000: c14a aebe ebaa a0bd b94d de3c 145d d43b
00000010: 8e4f 7cbe 99a9 8d3c 37bf e03d e48d 263d
00000020: 26e8 f73e f5ab 9d3d 014f 2a3d 2f2c 60be
00000030: 17c5 e7bd 00b7 94bc 7cfb 193c 6bbf 0c3d
00000040: cb4a 82bd fe20 2e3e 4b04 863e 05a6 a1bc
00000050: 0f9d e0bc bbba c8bc 9d0d bb3c 9374 f3bd
00000060: 32bf 5dba 23f9 ce3c cc54 8fbd 1ffb b4bd
00000070: c672 b73d 7d77 f6bd d193 9d3c 9a57 b8bd
00000080: df2e b1be a64e a0bc 02dd 44bd 39fa f2bd
00000090: 7ee6 9dbd 7ea0 c53d 0f91 2ebe 90d5 f7bd
000000a0: 9e65 aa3e e7f4 0e3e f706 3b3e 652c 92bd
000000b0: 5be9 33bd 5155 ca3b b0da db3c 56ea 1dbd
000000c0: b1f0 a6bd 676e 1e3e 0621 9e3d bc59 733d
000000d0: a5ce c43d cfe2 c43c d443 fb3d c4ca 3fbe
000000e0: 94f5 31bd 97da 303e 189e 33bd 91c6 143e
000000f0: d1fe 8b3c 715d 05be b45a f9bd 74c9 b23c
00000100: 9a88 b8be 0bdb f73b 5409 62bd da11 10be
00000110: d97d ac3c eee3 e13d aa11 82be 488d 28be
00000120: c44a 863e 0fad 153e cb86 7d3e 3ce3 f1bd
00000130: 7a61 9fbd 2d82 b33d 20a0 bd3d 3f34 f7bd
00000140: 3573 4ebd 346c 403e b5af db3d 026a 843d
00000150: 853d 0e3e ba8e e93b 6e7c df3d 393f 5abe
00000160: 752a 0bbc cf1c 653e 2cc7 43bd 6480 b13d
00000170: ec88 1abd a062 5cbe 0ae5 bcbd 5792 3f3d
00000180: 207a c53e 2787 14bd fc02 ffbc 8c00 e73d
00000190: 1e55 cc3d 89d3 31bd 60b9 07be 19db 323e
000001a0: 0052 51be cf9e 19be 3162 6fbe 51a3 b43e
000001b0: 4ebb 423e 5c81 3bbe 071b 71bd 3e34 b53d
000001c0: 22ac c8bc 423b 61be 2432 f7be 6239 0d3a
000001d0: 98fb 66bd caa3 193d e69e a2bd 9f79 1e3e
000001e0: 0426 a2bd 39e2 2abd e5f1 a83d 6c88 ba3d
000001f0: 8367 efbc 5ef3 ce3e e89f 353d 773d 70bd
00000200: d3ac d7be f7f4 1bbd 1cc3 823d b55f 51bc
00000210: 41f0 58be 382c 913c df83 9e3e d77e 21bd
00000220: 3840 433e 3bbe e03d 1f45 083e d378 f8be
00000230: 7f13 44be 70ae 063e d9a1 7d3b a0b2 f53c
00000240: d90b d6bb aa4c 623e 7d5d 0d3f 1892 84bd
00000250: 564a b33c afb0 43bd 8855 0a3d 4441 9cbd
00000260: 2d45 fb3d fd96 4abd 66c9 bebd 35ea 77be
00000270: 9f0e 0c3e 479d bcbe cc23 cb3c 7744 953b
00000280: d05c a8be 97ac a4bd ca10 00bd 19b7 2dbc
00000290: 8fec 27be 2148 683d 0ee5 47be e950 2f3c
000002a0: 9912 123f 2aff 2f3d 61d4 a93c 7d9a d43d
000002b0: b168 65bc ea2f eebd 00ee 3ebd 33f1 1d3d
000002c0: 8da8 25be 4ebe ea3d 1a94 0cbe 8747 083d
000002d0: 4dfc 373d 8c69 2a3d 458e b33d 9632 e8bd
000002e0: 105d 72bd d0fa 0f3e ab81 ef3a 712c 1a3e
000002f0: 2832 323d eea9 033e c889 5abd 1aa7 04be
00000300: 23ea c33e 0755 083d 46b0 afbc 512c 703d
00000310: cb85 143e c62e 77bd ed41 c5bc b2c4 3e3d
00000320: 186f debe c8af bcbd 8269 fabd 598c 533e
00000330: 9449 de3d 259e e8bc 093c 3fbd f194 c6bb
00000340: 0df9 7d3d db3a 2dbe b78d 84be 19c7 c93b
00000350: 4914 1cbd d7b2 de3c 137d 4cbd 699d 2a3e
00000360: 2188 99bc 4ac7 adbd 9af6 e73c 9940 833c
00000370: 7bd9 a3bd ee9e 2e3e ee05 183d e394 373d
00000380: 5513 c5be 4679 c8bc 91bc 9a3d 0076 afbc
00000390: 0fd7 5dbe 98be 703c ea98 5f3e bb6a 39bc
000003a0: c2c4 c33e 15e1 063e 44a4 993d 6ffd b2be
000003b0: d696 16be 57b6 023d 4a35 573c d202 613d
000003c0: c10f 36bd a33e 403e 6420 e23e d72e 10bd
000003d0: 979c 7cbc b3dd 83bc d729 d93c e552 cabd
000003e0: 0eef 333d 8eb3 3ebd c0de 95bd 27ea 0dbe
000003f0: f253 053e 2e5b 7bbe 5442 133d 41cc 54bd
-0.34041408 -0.078451 0.02713667 0.0064808223 -0.24639723 0.017292785 0.10973971 0.04066266
0.48419303 0.07698814 0.04157925 -0.21891855 -0.11316889 -0.018153667 0.009398337 0.034362238
-0.06361922 0.17004773 0.2617515 -0.019732485 -0.027418641 -0.024503103 0.02283364 -0.11887469
-0.0008458971 0.025265282 -0.069985956 -0.0883696 0.08957438 -0.12034509 0.019235523 -0.09001084
-0.34606072 -0.019568752 -0.048062332 -0.118641324 -0.077099785 0.09649752 -0.17047523 -0.12101281
0.33280653 0.1396061 0.18264376 -0.07137374 -0.043923717 0.0061747213 0.026837677 -0.03855356
-0.08151377 0.15471803 0.077211425 0.05941175 0.09609727 0.024033932 0.122687966 -0.18729693
-0.043447092 0.17270885 -0.04385194 0.14528872 0.01708928 -0.13023926 -0.121755034 0.021824576
-0.3604172 0.0075639538 -0.055184677 -0.1406931 0.021056103 0.11029802 -0.25404102 -0.16460145
0.26228917 0.14616798 0.2475845 -0.1181092 -0.07782264 0.087650634 0.09259057 -0.12070512
-0.05040284 0.18791276 0.10726873 0.06465532 0.13890655 0.00712761 0.10912405 -0.2131318
-0.008494009 0.22374271 -0.047797367 0.08667067 -0.037728235 -0.21521997 -0.09223373 0.04677042
0.38569736 -0.036261704 -0.031129353 0.11279401 0.09977172 -0.043414626 -0.13254309 0.17466392
-0.20441437 -0.15001987 -0.23377301 0.3528085 0.19016764 -0.18311065 -0.058863666 0.08847855
-0.024496142 -0.21995261 -0.48280442 0.0005387274 -0.056392282 0.037509717 -0.07940464 0.15476082
-0.07917407 -0.04171965 0.08249263 0.09108052 -0.029224163 0.4042005 0.04434195 -0.058652367
-0.42124042 -0.038075414 0.063848704 -0.012779166 -0.211854 0.01772128 0.30959985 -0.039427605
0.19067466 0.109737836 0.13307618 -0.48529682 -0.19148062 0.1315248 0.0038701205 0.029992402
-0.006532174 0.22099558 0.55220777 -0.06473178 0.021886032 -0.04777592 0.033772975 -0.07629636
0.122690536 -0.0494604 -0.093157575 -0.24210437 0.13677453 -0.36838743 0.024797343 0.004555281
-0.3288331 -0.080407314 -0.03126601 -0.010602736 -0.16398834 0.056709412 -0.19520971 0.010700443
0.5705963 0.042967953 0.020731153 0.10381029 -0.014002011 -0.11630233 -0.046613693 0.038560104
-0.16177578 0.11462079 -0.13728371 0.03327134 0.044918347 0.041604564 0.0876737 -0.113377735
-0.059170783 0.14060521 0.0018272897 0.15056016 0.043504864 0.12857792 -0.053354055 -0.12954369
0.3826457 0.033284213 -0.021446358 0.058636013 0.14504163 -0.06034734 -0.024079287 0.046574302
-0.43444133 -0.09213215 -0.12227155 0.20659007 0.10853878 -0.028395722 -0.046688113 -0.0060602357
0.06200509 -0.16916983 -0.2588937 0.0061577675 -0.038105283 0.027184887 -0.049923968 0.1666161
-0.01874167 -0.08485277 0.028315831 0.016022014 -0.080004655 0.17052814 0.03711503 0.044819724
-0.38491312 -0.02447189 0.075554974 -0.021418571 -0.2166407 0.014693879 0.21835676 -0.01131695
0.38236052 0.131718 0.07502034 -0.3495898 -0.14705977 0.031912174 0.013135264 0.05493433
-0.044448618 0.18773894 0.44165337 -0.03520092 -0.015418193 -0.016096925 0.026509209 -0.09879092
0.043929152 -0.046557955 -0.07317877 -0.13858853 0.13020304 -0.24546501 0.035951927 -0.051952604

context_transformer_0/kq_shared_bottleneck/norm/mul;context_transformer_0/kq_shared_bottleneck/norm/add;context_transformer_0/attention/query/einsum/Einsum;context_transformer_0/attention/query/add;context_transformer_0/attention/value/einsum/Einsum;context_transformer_0/attention/query/add/ReadVariableOp/resource;context_transformer_0/attention/Mul;context_transformer_0/attention/Mul/y f4 [32]
00000000: c01c c1bd 654a fcbb 0d9b f63c 60b8 c93c
00000010: 250f e6bd 4fd3 6abd 0ba5 7e3d 258e e2bd
00000020: c006 36be e561 0a3e d5b4 823d 7cd9 41be
00000030: 944c 93bd c546 25be 6b9a 3cbe ccb5 34be
00000040: 6fcb 473e 194f 4fbe c71d 303e b998 2e3e
00000050: 4b11 1a3d b400 453e e592 e23d 41d4 253e
00000060: 1136 e73d 95b6 a8bd eda5 74bb 62c0 b6bd
00000070: 3319 de3d cf4a a63a c7f5 fd3d 5ac3 c0bd
-0.09429312 -0.007699298 0.03010323 0.02462405 -0.11233357 -0.057330426 0.062169116 -0.11062268
-0.17776012 0.13513906 0.06382147 -0.1893062 -0.071923405 -0.16140278 -0.18418281 -0.17647475
0.19511198 -0.20245017 0.17198859 0.17050447 0.037614148 0.1923855 0.11063174 0.1619425
0.11289609 -0.0823795 -0.0037330345 -0.08923413 0.1084465 0.001268709 0.12400394 -0.0941226

context_transformer_0/kq_shared_bottleneck/norm/mul;context_transformer_0/kq_shared_bottleneck/norm/add;context_transformer_0/attention/query/einsum/Einsum;context_transformer_0/attention/query/add;context_transformer_0/attention/value/einsum/Einsum;context_transformer_0/attention/query/add/ReadVariableOp/resource;context_transformer_0/attention/Mul;context_transformer_0/attention/Mul/y1 f4 [32, 32]
00000000: b79d afbb b829 2fbb d41c d9bc 5fd8 b53d
00000010: 6994 babc 43e6 17bd 33ca a1bb 0841 0e3c
00000020: 918f 86be 0c41 35bc 2f2f 01bd c378 e4bb
00000030: 26da 9f3c fb89 38bd 78d5 48bc ecb0 8abc
00000040: 2bbc c2bc abb1 a6bc 30be 1a3d 4974 0fbc
00000050: 9860 81bc edca 1c3c 238c 97ba 2fc2 e2bc
00000060: 90c3 0dbd 0332 743d d5a7 1a3d a71e 9f3a
00000070: dc11 aa3b 2047 d63c 6ea5 30bd ad88 243c
00000080: 9464 a9bc 041d bfbb 2af0 273d ec96 e13d
00000090: 5034 77b9 bd39 3bbc 34f4 fd3c 43df b83c
000000a0: cfb5 8abe 209b bebc d365 a4bc 0085 693c
000000b0: 6e0a 1bbd 23f4 5d3b fb3b 87bc e3d2 67bc
000000c0: f395 333d b38f 4c3d 7154 b4bb 76aa 98bc
000000d0: 75ed 98bc a234 ac3c 63a5 f7bc 59c7 e53c
000000e0: 240f bdbd c042 65bc 80e5 2e3c 0c43 6abb
000000f0: 8755 723c ce75 94bd d04c 783b ad44 a2bc
00000100: 43a8 7dbc a914 ecba ff47 933d dc6c 823d
00000110: ad84 b1bc 193f 16bd 8a26 8d3c 4103 133d
00000120: 32c6 89be 1684 38bd da6a d8bc f2e2 973b
00000130: edd5 8bbd 49b8 da3c b917 cfbc 2564 9a3c
00000140: 776d 373d 133f 7e3d 6a08 20bc 330e c4bb
00000150: ef1d 22bd 36f2 2f3d de34 95bd a220 843d
00000160: 3ec8 9abd 125a 24bd 94d8 39bd 5b5d 253c
00000170: ec19 353d 8d90 f7bc cdfb 4b3d c96c 97bc
00000180: 462b 6a3c 3a00 0e3c 664c 8abd 64d2 6abc
00000190: d4f2 f43d f386 853d d93e 20bc 16e2 d8bd
000001a0: 4af6 783e f508 993d 81bb 963d 24d7 3139
000001b0: 4d48 3d3d c938 283c cbc5 973d 6f0d 9ebd
000001c0: dc93 953c abdc e6bc ae55 533c 32fb 07bc
000001d0: a494 ac3d bbc5 86bd bb9f 9a3d 6e6f 85bd
000001e0: 043a 803c b94e b2bc 606c 2a3d b31b 663b
000001f0: b917 c7bd 385c dabd a463 55bd 8799 6c3d
00000200: 6b3d 843c e061 04bd 914f 16bc 9c40 603c
00000210: a47b 04be 9f7a b6bd fed7 05bd f61a f33d
00000220: d0ce 44be 29d5 97bd 4b05 cfbd a67f b6b8
00000230: 87af a73c cea1 86bd 0b22 acbd 314a 9d3d
00000240: 0c9d 9dbd 2371 a1bc 5b26 833b 7255 173d
00000250: c771 c8bd 97e4 893d 3e81 92bd c01b 8b3c
00000260: a2c6 55bb f376 8f3d 3ca0 0ebb f4a9 2c3c
00000270: 0e88 973d 868d 1c3e 9273 d93b 63d4 67bd
00000280: 031f e0bc 139c 8d3b 3dee ddbc 21f4 ff3d
00000290: 2bad 823d aa7d 203a 7c05 18bb 5e74 2dbd
000002a0: 65fd 9bbe 6252 ad3b ab4a c53b cf8e a63c
000002b0: 03ba 693c bb6a 84bc 1495 c13c ea86 8cbd
000002c0: c1e4 933c 7bed 623c 9dff 413d 80a2 0cbd
000002d0: 887e a13c e9e3 a2bc 370f e13b 668c 46bd
000002e0: 64a4 c9bd 7bb3 c33c 888b 4f3d c889 843b
000002f0: 9106 fcbc c45b c6bd 1ccb 3fbd 4b1f c93c
00000300: bd7a 533c 7fd6 a23b 00d0 97bb 567e b1bd
00000310: f03f ab3c 6d94 1a3d e848 dabb 9ccb 1ebd
00000320: 31dd 8e3e 7a62 803c 173e ca3c ecf3 92bc
00000330: f453 c1bb f5a5 953c 60da 0c3d 55e7 6639
00000340: 9f2e 923b 0c5a 08bc 89c0 f2bc 4642 b63c
00000350: 9cfd c53c 9261 87bc 6d54 813c 0665 aeb9
00000360: 6ff5 423d 1d79 e7bc 2bb7 64bc fa9a 4d3c
00000370: 1463 14bc c49b 11ba 6803 923c 9f0e 023c
00000380: 5c5d 983c df3d d0bb 27fd b9bc 6958 493d
00000390: 9e48 65bd c401 88bd d469 32bc 83f5 823d
000003a0: 1b2a 74be b0ac 12bd 6154 7fbd 76b7 873c
000003b0: ef68 063d 236b 38bd 74c3 18bd 7748 ec3c
000003c0: 4e75 3cbd 2cb9 8bbc 5a98 023d 9f73 d33b
000003d0: 485b 56bd 1642 093d 86ed 32bd 3561 56bc
000003e0: 28ef a8bc 71a7 603d 33ac 1f3d f5be 8cbb
000003f0: 1e61 133d f8c8 9e3d bedc eabc 363c 70bc
-0.0053593772 -0.0026727747 -0.026503004 0.0887916 -0.022775846 -0.03708483 -0.004937434 0.008682497
-0.26281407 -0.011062872 -0.03153914 -0.0069724037 0.019513201 -0.045053463 -0.012257926 -0.016930066
-0.023771366 -0.02034839 0.037779033 -0.008755752 -0.01579313 0.009569866 -0.001156215 -0.027680485
-0.03461033 0.059618007 0.037757713 0.0012139872 0.0051901173 0.026156962 -0.043126516 0.010042352
-0.020677842 -0.0058323164 0.041000523 0.11015114 -0.00023575244 -0.01142734 0.031000234 0.022567397
-0.27091834 -0.023267329 -0.020068085 0.014252901 -0.037851743 0.003386744 -0.016508093 -0.0141494
0.043844175 0.04994173 -0.0055032303 -0.01863597 -0.018667916 0.021021191 -0.03023023 0.028049158
-0.092314035 -0.013992965 0.010674834 -0.003574553 0.014790899 -0.07249032 0.003788758 -0.019808138
-0.015482011 -0.0018011528 0.071914665 0.063684195 -0.02166971 -0.03668127 0.01723029 0.035891775
-0.26909024 -0.045047842 -0.026418138 0.0046352083 -0.068279125 0.026699202 -0.025279867 0.01884658
0.04478213 0.06207187 -0.009767631 -0.005983138 -0.03957933 0.0429556 -0.07285474 0.06451537
-0.075577244 -0.04012496 -0.04537256 0.010093058 0.044214174 -0.030220294 0.049800683 -0.01848449
0.014292544 0.008667046 -0.06752853 -0.014332388 0.11960378 0.0651988 -0.009780609 -0.105899975
0.24312702 0.074724115 0.07359982 0.00016960182 0.04621153 0.010267445 0.07410773 -0.07717406
0.018258981 -0.028181395 0.012898846 -0.008299636 0.084267884 -0.06580683 0.075499974 -0.06515394
0.015652664 -0.021766054 0.04160726 0.0035111725 -0.097213216 -0.106621206 -0.052096978 0.057763603
0.016142568 -0.032319903 -0.009174244 0.013687279 -0.1293779 -0.08910107 -0.03267669 0.11870377
-0.19219518 -0.07413704 -0.101084314 -8.702213e-05 0.02046944 -0.065738305 -0.08404931 0.076801665
-0.0769597 -0.019707268 0.004002375 0.03694672 -0.09787326 0.06733053 -0.07153557 0.016981006
-0.0032619615 0.0700511 -0.0021762988 0.010538567 0.07398997 0.15288362 0.0066360915 -0.056599032
-0.027358538 0.004321584 -0.02709114 0.12497736 0.063806854 0.0006122241 -0.0023196628 -0.042347305
-0.30466762 0.005289362 0.006020864 0.020331768 0.01426554 -0.016164174 0.023630656 -0.0686167
0.018053414 0.013850565 0.047362912 -0.03433466 0.019713655 -0.019884067 0.006868269 -0.048473738
-0.09845808 0.023889294 0.050670177 0.004044745 -0.03076485 -0.09685472 -0.04682456 0.024551054
0.012907681 0.0049694176 -0.00463295 -0.08666675 0.020904511 0.037739206 -0.006661523 -0.038768396
0.2790313 0.015671957 0.02468781 -0.017938577 -0.0058999006 0.018267611 0.034387946 0.00022020687
0.004461124 -0.00832225 -0.029632824 0.022248399 0.024168782 -0.016526017 0.015787328 -0.00033263135
0.047597345 -0.028255994 -0.013959686 0.012549156 -0.009056825 -0.0005554522 0.01782389 0.007938056
0.018599205 -0.006355032 -0.02270372 0.04915658 -0.055977456 -0.06640962 -0.010889489 0.06394484
-0.23844187 -0.03580922 -0.06233633 0.016566973 0.032814916 -0.04502405 -0.037295774 0.028843148
-0.046010308 -0.01705607 0.031883575 0.006452992 -0.052333146 0.03351029 -0.04368355 -0.013084699
-0.020621851 0.054847185 0.03898258 -0.004295225 0.03598129 0.077531755 -0.028669711 -0.014662793

context_transformer_0/ffn_layer_0/intermediate_dense/einsum/Einsum;context_transformer_0/ffn_layer_0/intermediate_dense/Relu;context_transformer_0/ffn_layer_0/intermediate_dense/add f4 [32]
00000000: d4f2 84be e3ca 3ebe f625 8abd e7ac b9be
00000010: 9d8b b3be 3317 87be 21c3 a5be 92b1 fdbe
00000020: 7a26 8fbe bd95 12be a920 eabe d263 a5be
00000030: c1be 97be e198 27bc 5bab ccbd 2efd 27be
00000040: a1d9 aabe cea5 d6be b280 57be 4dcc 9ebe
00000050: fe75 ecbe da57 4fbe 385c d3be dcf9 83be
00000060: b553 afbe 8b3d c0be 17ff 75be c4b0 b4be
00000070: d8e5 34be 5f17 8dbe d151 9abe 9ced 95be
-0.25966513 -0.18632083 -0.06745522 -0.36264727 -0.35067454 -0.26384887 -0.32375434 -0.49549538
-0.27959043 -0.14314933 -0.45728043 -0.3230272 -0.2963772 -0.01022932 -0.09993621 -0.16405174
-0.33369163 -0.41923374 -0.21045187 -0.31015244 -0.4618377 -0.20248356 -0.41281295 -0.25776565
-0.3424355 -0.37546954 -0.2402309 -0.3529111 -0.17665803 -0.27556893 -0.30140546 -0.29282844

context_transformer_0/attention/norm/mul;context_transformer_0/attention/norm/add;context_transformer_0/ffn_layer_0/intermediate_dense/einsum/Einsum;context_transformer_0/ffn_layer_0/intermediate_dense/Relu;context_transformer_0/ffn_layer_0/intermediate_dense/add f4 [32, 32]
00000000: 9786 753e 936f bb3d 279c 1ebe ef8e 333d
00000010: 1c8b 22be 533d 0a3e 9f35 803d 333f 053e
00000020: dcbd 0f3e 8916 31be 9cea dbbe 6801 cbbe
00000030: 1d54 823d a065 be3d 59b3 85be 1b76 183e
00000040: b03d c6bd e4ff c3bd 49fb 42be 1180 23be
00000050: be55 d83d feb0 54be fba5 953b 7080 f9bb
00000060: 612a 153d 75ff d13c 2a52 ec3d 5f1f aebd
00000070: 7477 26be 9e78 063e 265f d9bc cf4e 6bbd
00000080: 4b76 8a3c fb43 47be 2b3d 123e fa23 c5be
00000090: 4980 343e b096 c53e a3fa 2cbd ea94 743d
000000a0: fcae a2be beec 0ebe 5987 fe3d 05f7 fc3d
000000b0: 55ef 70bd 3e00 18be 5bb1 83be 0d4e d73d
000000c0: 7da0 3b3e 4f96 d23b e42d dcbd de77 d43d
000000d0: adc0 2a3d 36cb 56be 7778 973d baa9 fdbd
000000e0: e689 183d 36f1 89be 220b ef3d d996 14be
000000f0: 3858 983e f4c4 033f 4683 99be 5bbb 9e3d
00000100: 9836 5dbe 59b6 f9bd cbad 513e e14a 0bbc
00000110: 75d5 f03c e707 60be d386 08bd 3d08 27bc
00000120: 4082 a3bd 2252 833d e310 b7be 1ec8 b33e
00000130: 6fb4 2abe 081b 063e 7ce3 6e3c f62f 27be
00000140: 6e23 a0bd 3add fe3d e0e3 57be 7ea9 413d
00000150: 60b9 ad3e afe8 863c 42f9 773e f6b0 1e3e
00000160: 6391 44bd df55 433c 4f67 b63d 7842 82bd
00000170: e212 ae3e ff76 4a3d c09d 713d c841 49ba
00000180: 9205 1cbe 3605 0bbe 440d 8abd 2787 223e
00000190: 6da3 1abd 1458 f4bd b8c6 3b3e 4bd3 573e
000001a0: cfde 9ebc 1421 8d3d c937 f8be 7d23 d8bd
000001b0: 17aa 8fbe c5fe 32be 09eb cabe 6b70 7d3d
000001c0: 4d08 213e 742e 62bd 7329 003d 2d91 1ebd
000001d0: dfb7 223e 3253 0cbe b4df 913e 846d 83be
000001e0: 76d8 dd3d 6745 243d 5e66 ab3d dd39 1d3d
000001f0: d5be c8bb f350 6cbd 8360 e4bc 1332 013d
00000200: cafd 86bd bda3 7e3e 7d5b abbd 0250 643e
00000210: 0a1a 37bd 8552 5c3d e9db c83d 2c54 6ebe
00000220: e0e7 56bd 57f9 cc3d a6ba bcbe 0843 213e
00000230: fea6 0c3e 228b e23e 039d 943e 7352 93be
00000240: 9717 87be 42b9 cbbd 27e9 9f3d c786 64bd
00000250: 0e16 603d b518 53be 070a fcbd 78ba 9fbd
00000260: f953 203e d787 8c3d 02d5 06be 5533 a13e
00000270: 97a2 ef3d 7155 99be b68c f2bc b180 31be
00000280: 4e67 163e 5a4c 95bd 6083 9bbc 5f0e 873e
00000290: 1baf 4bbe 341d 4c3e 2437 56bc d9cc d3bd
000002a0: 4d07 3f3e 321d 5dbd b56b 813d e4bd 6c3e
000002b0: b2ca a7bc 1c05 80bc 475d 1bbe 7f5b 2dbd
000002c0: fc46 61bd 95e9 883e 7fa5 553e b216 9f3d
000002d0: 499b e4bb bf79 b4bd b2e1 ad3e 81c1 42bc
000002e0: d28a 513d 13c5 c7bd 385e 02be 89c8 8a3c
000002f0: d952 983e d235 abbe 8ac4 1c3d 98c7 73be
00000300: 0f85 933d 6b89 0bbe ab29 0e3e 9a8c 9cbc
00000310: e927 593d 9ddf 7abd 6fc8 a7bd 010b f5bd
00000320: c97d 313e 3b4c eebd 2440 1abc 5b81 cd3e
00000330: dfda 4abe ff5a 8b3e 5f0e ac3d c5d9 963d
00000340: 8268 bd3d 1c7a ddbc d255 8abd f88c 623d
00000350: 9af9 88be 02d9 33be 1f05 21be 5812 b9bc
00000360: eaed ecbd 065f d3bd efc9 99bd 78bd f8bd
00000370: 00a6 813e 9e9e 493e 962e 4e3c e716 1dbe
00000380: 41dc 2ebe b743 2f3d 6c3b 28be 767b 5ebd
00000390: 9092 e3be e953 c63d dfa6 173e 5d15 a4bc
000003a0: c5b3 74be 436a aabd e5cd 96be dbcb 1dbe
000003b0: 9df0 efbd b41b 923d 3ad6 43be e57c 47bd
000003c0: cbca 063c c584 42be 75d9 21bc f6e6 cabd
000003d0: baec 82be ff28 0cbd 7a9c cabd 3a5c 6bbc
000003e0: 9f74 5dbe d775 8cbb 4a99 86be af30 ccbd
000003f0: f2f8 2fbe a413 973e add0 d3bd 8542 12ba
0.23977123 0.091521405 -0.15489255 0.043837484 -0.15873379 0.13499956 0.062602274 0.1301239
0.1403727 -0.17293753 -0.4295243 -0.3964951 0.063636996 0.09296727 -0.26113394 0.14888804
-0.09679735 -0.09570292 -0.1904117 -0.15966822 0.10563229 -0.20770642 0.0045669056 -0.007614188
0.03641737 0.025634507 0.11539109 -0.08502077 -0.16256505 0.1313195 -0.026534628 -0.057448205
0.01690211 -0.19459526 0.14281146 -0.3850401 0.17627062 0.38591528 -0.042231213 0.059712328
-0.31774127 -0.13957497 0.12428159 0.12351803 -0.058821995 -0.14843842 -0.2572125 0.10512934
0.1832294 0.0064266096 -0.107509404 0.10374425 0.041687656 -0.20975956 0.07396024 -0.123858884
0.037240885 -0.26941842 0.11672045 -0.14510669 0.29754806 0.514724 -0.29982966 0.07750579
-0.21602857 -0.12192983 0.20476453 -0.008501739 0.02939866 -0.21878015 -0.033331703 -0.010194835
-0.079838276 0.0641215 -0.3575507 0.35113615 -0.16670392 0.13096249 0.014580604 -0.1632689
-0.07819258 0.12444539 -0.21083021 0.04728078 0.33930492 0.016468374 0.24216178 0.15497193
-0.047990214 0.011922329 0.08906423 -0.06360334 0.3399878 0.04942989 0.058988333 -0.00076773437
-0.152365 -0.13576207 -0.067408115 0.15871869 -0.03775351 -0.11930862 0.18337524 0.21076696
-0.019393353 0.06891075 -0.4848006 -0.10553644 -0.28059456 -0.1748 -0.39632443 0.06187479
0.15725823 -0.055220082 0.03128953 -0.03871267 0.15890454 -0.13703611 0.28490984 -0.2566949
0.10832302 0.04010525 0.08369134 0.03838526 -0.0061262646 -0.057694387 -0.027878052 0.031541895
-0.06591375 0.24867149 -0.083670594 0.22296146 -0.044702567 0.053789634 0.098075695 -0.23274297
-0.052467227 0.10008495 -0.3686115 0.15748227 0.13735577 0.44246775 0.2902604 -0.2877384
-0.26385185 -0.099474445 0.07808142 -0.055792596 0.054708533 -0.20614894 -0.123066 -0.07799238
0.15657033 0.06861847 -0.13167194 0.31484476 0.117009334 -0.29948 -0.029608112 -0.17334248
0.14687845 -0.072899535 -0.018983543 0.26378152 -0.19891016 0.19933015 -0.01307467 -0.10341806
0.18655129 -0.05398292 0.063193716 0.23119313 -0.020482395 -0.015627436 -0.15172301 -0.042323586
-0.054999337 0.2674071 0.20863913 0.07768001 -0.0069765192 -0.08812284 0.33961254 -0.011886955
0.05115778 -0.09754386 -0.12731254 0.016941326 0.29750708 -0.334395 0.03827337 -0.23806608
0.07203113 -0.1362664 0.13883083 -0.019110013 0.053016577 -0.06124841 -0.081925265 -0.119649895
0.1733314 -0.116356336 -0.009414706 0.40137753 -0.19810055 0.27217862 0.084011786 0.07365755
0.09248449 -0.027035765 -0.0675465 0.05531022 -0.2675293 -0.1756325 -0.1572461 -0.022591755
-0.11568816 -0.10320859 -0.07509219 -0.12145513 0.2532196 0.19689414 0.012584349 -0.15340768
-0.17076208 0.042789187 -0.16428918 -0.05431696 -0.44447756 0.09683973 0.1480975 -0.020029718
-0.23896702 -0.08321049 -0.2945396 -0.15409796 -0.11715815 0.0713419 -0.1912469 -0.048703093
0.008227061 -0.1899596 -0.009878506 -0.099073336 -0.25571233 -0.034218784 -0.09893127 -0.01436525
-0.21626519 -0.0042865085 -0.26288825 -0.09970223 -0.17184809 0.29507172 -0.10342536 -0.000557937

context_transformer_0/ffn_layer_1/intermediate_dense/einsum/Einsum;context_transformer_0/ffn_layer_1/intermediate_dense/Relu;context_transformer_0/ffn_layer_1/intermediate_dense/add f4 [32]
00000000: f134 8f3d 7c79 f4bc 75bd a1bd 0604 b2bd
00000010: a3c5 03be 719b 6b3d 7360 b4bd 8770 13be
00000020: 112d a4be 8ea0 1f3e 7bd7 bbbe 9a32 3a3e
00000030: 7f29 91be 3349 9bbe 4920 c9be 2134 98be
00000040: 57b4 cd3d 3bcc ff3d e31b bd3d b188 2abe
00000050: 5c0d 553e 0688 a1bc 9de3 01bd b0fa 283e
00000060: 2a4b b6bd 7091 f93d ddaa 823d 0fbd 1abe
00000070: c59a a8be 2646 11bd 2219 48be 3570 98be
0.0699252 -0.029843085 -0.07897464 -0.08692174 -0.12868361 0.057521287 -0.08807459 -0.14398395
-0.32065633 0.1558859 -0.36687836 0.18183365 -0.28351972 -0.30329284 -0.39282444 -0.2972727
0.10044163 0.12490126 0.092338346 -0.16653706 0.20805877 -0.019718181 -0.03171121 0.1650188
-0.08901055 0.12185943 0.06380246 -0.15111183 -0.3293058 -0.03546729 -0.19540837 -0.29773107

context_transformer_0/ffn_layer_0/norm/mul;context_transformer_0/ffn_layer_0/norm/add;context_transformer_0/ffn_layer_1/intermediate_dense/einsum/Einsum;context_transformer_0/ffn_layer_1/intermediate_dense/Relu;context_transformer_0/ffn_layer_1/intermediate_dense/add f4 [32, 32]
00000000: a13c fcbd d982 063e a89b 8ebd f112 54bc
00000010: 9b15 22be 8b9a 7dbe 207e 163e 4857 44bd
00000020: 374e 973d 8ab8 1c3d 4425 78be dda3 27be
00000030: dbce 7abe af34 e43d 5f32 b83c 6275 89bd
00000040: b013 5b3d 157d b4bd 2af8 07bc 4511 bcbe
00000050: a1f7 063e e939 56bd 5767 113e 886d 17be
00000060: c3af acbb d985 d13d 4bf4 a4bd 9fe8 2f3e
00000070: 328a 68bd f2e8 273d 3209 27be ec28 1abd
00000080: e471 ba3d 6336 a2bc 0392 3f3b e6d3 efbd
00000090: ef58 4bbd 262f 3abc cbfd 8a3c a6e6 d6bb
000000a0: 0d92 5fbc 2db7 60be e537 0abf ecaf eebd
000000b0: 1748 21be e9d2 53bc 810d e1bd db80 cf3d
000000c0: eacc 8c3d 7600 08bc 6840 14be 1feb 2dbe
000000d0: 8a34 993b 1e52 fbbd 1e48 963d a3d8 b2bd
000000e0: 3efd 2cbe 9dca 4fbe acfd edbd 6c9e f3bd
000000f0: ec77 97bd ba66 b53e 6830 1e3d ac35 2dbd
00000100: 09d4 153f aad7 5e3a d7fb eebd 22b1 cc3d
00000110: cf94 6ebe b84c 903e d9b2 693e d9d9 1c3e
00000120: 86d2 4d3d 0c8d d9bd ce4b 00bd d965 d0bd
00000130: 0b20 113e d83b 2ebe 50c2 06bd 57a5 fabd
00000140: c23f 93bd 4e57 703e 61e8 563e 7d77 95bd
00000150: dfe8 9dbe 6a3b ebbe 2c40 4c3d fa0b 02bf
00000160: 5055 483d 46a4 8f3d 661b 42bd ba07 aabc
00000170: 2ae1 843e 1bd9 593e cf2c ae3d 872d fc3d
00000180: c975 82be 87da 44bb 6dd0 edbd 6ec1 27bd
00000190: 42ec b4be 5810 b1bd 300a 5a3e e9ff 013e
000001a0: e980 88bc 420c 3cbc 46d3 15be f159 bd3d
000001b0: 45e5 72be c785 713e 4c21 00be dbee a7be
000001c0: a692 29be 7f90 4b3e 75b4 0b3d b5f7 83be
000001d0: 47e8 cebd c141 d73d fbaf 1ebd 6c04 babd
000001e0: df23 533d 89ac 313d 6ff5 81bd 4a15 233e
000001f0: 1bfc f2bd 6de9 9c3e 0aad 09bd 63ae a13e
00000200: 5fdf 1dbd 2d6b cebd af77 1b3e 04fd ecbc
00000210: 371c 2dbc ae24 6bbd b39c d33d f149 5c3e
00000220: 55d1 0c3e 3f5e cf3d e49a 8fbe 8504 95be
00000230: 7df5 f9bd 0114 e73c afad 99be 1f93 4abc
00000240: fce9 5a3e 7d82 823e 6a8f 2cbd fb1e 91bd
00000250: e3b1 473e 9cbd 9c3d a598 1d3e 45e3 9dbc
00000260: 4ff7 e33d b291 a5bd e214 0dbc 879a 0b3e
00000270: 1e3f dabe 1476 8a3d 0c06 8b3c 906c de3c
00000280: c550 ec3c 25f1 b23d 12a5 8bbe e3b1 abbd
00000290: 834b 8fbe 3fe2 ee3e d2c6 5c3e dad0 beba
000002a0: 5538 a0bd 5d16 0ebe fb08 b2be 6b8f 9fbe
000002b0: 2b76 a8bd 6371 853e 22f9 a6be e27d f43d
000002c0: 219a e0bc 974d fabd 5f13 9bbd 4675 2fbe
000002d0: 16f9 d23d ac93 f0bd 0323 82be 1df8 b9bd
000002e0: 3076 c3be ae6c 65be 8eb2 8fbd 3843 f1bd
000002f0: 44c6 e1be fe6c 553e 9ab9 07be 734c 37bd
00000300: 7e76 69bd 211e 013d 7150 15be c7e7 89bd
00000310: 1ca3 32be e68e 803e d003 503e 7ca7 633d
00000320: 3c92 37be 1ec4 31be 24de b03b feee cebd
00000330: b9a1 14bc 3398 a8bd 38aa 73be 35e6 23be
00000340: 4de0 8f3d 60bb 893d 9202 7a3e 1db4 cebd
00000350: 2863 2ebe 453f 85bb 1bf8 54be 6c33 1fbd
00000360: 39d4 15bd 0c47 aabe 3e3c 1ebe 2bb5 043d
00000370: 9724 36be 6281 5e3e 7c12 b4bd b79d 39be
00000380: 23d6 043e 0a62 75bd c469 cdbd 151d 8dbe
00000390: 30e8 74bc 7b4c ed3d a453 a63d f1a2 853e
000003a0: 969f e43d 2804 413c f786 133c d0ad b0bc
000003b0: f041 13be b52b cebd 603b ecbd e522 003e
000003c0: 4f20 bdbd ae5f 8f3d 958a 2cbd e190 54be
000003d0: ac9f 1d3e 4f78 cd3d f61c 313e 46fd 03bd
000003e0: 0388 bc3d da08 8f3d 3fa8 4a3e 5693 8e3e
000003f0: 5df3 d7bb fbe6 8a3e adda 0e3e 0ba0 b2bd
-0.123162515 0.13135852 -0.06963283 -0.012943969 -0.15828554 -0.24765985 0.1469655 -0.0479348
0.07387965 0.038261928 -0.24232966 -0.16371103 -0.24492972 0.11142861 0.022484956 -0.06711842
0.053485572 -0.0881292 -0.008298913 -0.36731926 0.131804 -0.05230132 0.14199577 -0.14787877
-0.005269976 0.102306075 -0.08054408 0.17178582 -0.05677242 0.04099364 -0.16312101 -0.037636682
0.09103754 -0.019801324 0.0029231317 -0.11710338 -0.04964536 -0.01136378 0.016966721 -0.006558257
-0.013645661 -0.21944876 -0.5399154 -0.11654648 -0.15750156 -0.012928703 -0.10988904 0.10131999
0.06875022 -0.008300891 -0.14477694 -0.16984223 0.0046754526 -0.12271522 0.07337974 -0.087327264
-0.16893479 -0.20292135 -0.1162065 -0.11895451 -0.0739592 0.35429937 0.038620383 -0.042287514
0.58526665 0.00085007644 -0.116691284 0.09994723 -0.23298953 0.28183532 0.22822131 0.15317477
0.0502496 -0.10622606 -0.031322293 -0.10175676 0.1417238 -0.17015016 -0.032900155 -0.12238567
-0.07189895 0.23470804 0.20987083 -0.07298181 -0.3084173 -0.45943767 0.049865887 -0.50799525
0.048909485 0.070137545 -0.04738941 -0.020755637 0.25953037 0.21274225 0.0850464 0.12313371
-0.25480488 -0.003003748 -0.1161202 -0.040955953 -0.353365 -0.086456954 0.21292949 0.12695278
-0.016663032 -0.011477532 -0.14631376 0.092456706 -0.23720272 0.23586188 -0.12512702 -0.3279942
-0.16559848 0.1987934 0.034107644 -0.25774923 -0.10102897 0.105105884 -0.038742047 -0.09082875
0.05154788 0.043377433 -0.06345641 0.1592609 -0.118644916 0.3064684 -0.03361229 0.3157836
-0.0385431 -0.10079036 0.15182374 -0.028929241 -0.010565809 -0.057408027 0.103326224 0.21512581
0.13751729 0.10125398 -0.2804786 -0.2910501 -0.12205026 0.02820778 -0.30015323 -0.012364178
0.2137832 0.2549018 -0.042128958 -0.07085987 0.19501452 0.076533526 0.1539026 -0.01927341
0.11131155 -0.0808443 -0.008610936 0.13633166 -0.4262628 0.06760803 0.016970657 0.027151376
0.028847108 0.08737401 -0.27274376 -0.083835386 -0.27987298 0.46656987 0.21560219 -0.0014558092
-0.078232445 -0.13875718 -0.34772477 -0.31164107 -0.08225664 0.2606307 -0.32611948 0.11938073
-0.027417244 -0.1222183 -0.07572054 -0.1713458 0.103014156 -0.11746916 -0.25417337 -0.09080527
-0.38176107 -0.2240474 -0.070164785 -0.11780399 -0.44096577 0.20842358 -0.13254395 -0.044750642
-0.05699777 0.031522874 -0.14581467 -0.06733661 -0.17445034 0.25109023 0.20313954 0.055579647
-0.17926878 -0.17359969 0.005397575 -0.10104178 -0.009071761 -0.08232155 -0.23795402 -0.16005786
0.07025204 0.06725192 0.24415043 -0.10092948 -0.17030013 -0.00406638 -0.2079777 -0.0388674
-0.036579344 -0.3325733 -0.15452668 0.032399338 -0.17787395 0.21729043 -0.08792588 -0.1812657
0.12972312 -0.05990795 -0.10029939 -0.2756125 -0.014947936 0.11586853 0.08121422 0.26100877
0.11163251 0.011780776 0.009004346 -0.021567255 -0.14380622 -0.1006693 -0.115347624 0.12513311
-0.09234678 0.07000671 -0.04212435 -0.20758392 0.15392941 0.10032713 0.17296204 -0.032223962
0.0920563 0.0698411 0.19790743 0.27846783 -0.0065902905 0.2712935 0.13950606 -0.08721932

context_transformer_0/ffn_layer_2/intermediate_dense/einsum/Einsum;context_transformer_0/ffn_layer_2/intermediate_dense/Relu;context_transformer_0/ffn_layer_2/intermediate_dense/add f4 [32]
00000000: 3d05 183e 4d41 8bbe 2feb 423e 4e52 ad3c
00000010: 4acb 71bd 8028 98bd 7ecd 473d 855c ebbd
00000020: f901 c23e 532f cbbe 6aa7 85be b54a ba3d
00000030: ee3f e1bd b5dc b53b 995e 9a3d b491 95bd
00000040: 2e99 9bbe 0e67 203e ac0c f9bd aacb 82be
00000050: a398 ed3c c1ec 2abe b587 2dbd 5baf b7bc
00000060: 5f70 b1bd 8d22 d43d 7c24 4cbe 9af9 bbbc
00000070: a5f6 f93d a2b9 153e 4d36 3c3d a154 b0be
0.14845748 -0.27198258 0.19035028 0.02115741 -0.059031762 -0.074296 0.048779957 -0.11492256
0.3789213 -0.39684543 -0.2610429 0.090962805 -0.10998522 0.005549992 0.07537574 -0.07303181
-0.30390304 0.15664312 -0.1216062 -0.25546008 0.029003447 -0.16691877 -0.04236575 -0.022422483
-0.08664011 0.103581525 -0.19935793 -0.022946168 0.12205247 0.14621595 0.045950223 -0.34439567

context_transformer_0/ffn_layer_1/norm/mul;context_transformer_0/ffn_layer_1/norm/add;context_transformer_0/ffn_layer_2/intermediate_dense/einsum/Einsum;context_transformer_0/ffn_layer_2/intermediate_dense/Relu;context_transformer_0/ffn_layer_2/intermediate_dense/add f4 [32, 32]
00000000: 883c 8cbd 01b0 9d3e 22dd 48be 6fad 16be
00000010: ef07 a3be e5ae 8cbd b5b5 2e3d a3e1 7abb
00000020: 3971 293d 1877 52be ecca 05bf d2b2 f63c
00000030: 1e76 6fbe a5d4 333e cf7c dc3d 1e15 bbbd
00000040: 1f1f b53c 9272 b5bd efc9 883c 668a 24be
00000050: 7662 2f3e 8019 81be f6db e93d 1846 a2bd
00000060: 90b0 4abe 5e4c 8a3c 093f cebd 5756 36be
00000070: f548 f23c 1f3b 283d 1327 023d 7596 103e
00000080: 3277 ed3d c186 bbbd 14b8 e33d 40ba ffbd
00000090: 00ac bdbd 204c e13e 1fb6 4b3d 9ed0 5e3b
000000a0: 5238 2fbe 79d6 b9bd 0c5d fb3d 7132 2ebc
000000b0: a26c a9bc e3b0 3abe ba8f 703c 9cab bcbd
000000c0: f799 4ebe 6b9c 943e 208e 5bbe 0c2a e23d
000000d0: 808f 093f daeb ee3d 1fc7 5c3e e283 c3bc
000000e0: d2b4 2ebe 0881 98be af3a fbbd d13a 00bd
000000f0: 9534 433e 9c46 b0bd 813b 4b3b 8d02 51be
00000100: 7c40 6e3e e93a 413e 83e6 38be 71f6 abbd
00000110: 6e6d b4be 0cad c9be 881a 323d 9db9 20bd
00000120: c46f ca3c e2ae fabd 8f40 aabe ff22 55bd
00000130: 206d 413d 09d5 8e3d be1e f73d 0e33 753d
00000140: 2d71 c2bd 1d05 753e 02ba 99bd 9ac9 67be
00000150: 0601 e43d 0c43 0abe 147e 413e e37a e53c
00000160: 54a6 15be 184a d9be fac6 5bbd 3c66 2cbe
00000170: d926 d23d 1cb5 e2be ce5e b03e 39ad 4fbe
00000180: b477 77be 99bf cb3d ccac 1cbe 7002 1e3e
00000190: a5ca 72be 4421 1e3e 8976 203e 2d0c a63d
000001a0: c31d a9bd d06d 26be 3ea2 0dbd 62e2 433c
000001b0: e609 ba3d e7b3 b7bd 9e89 cfbd 3cde 403d
000001c0: 13cc b33e 04a0 403e 1e53 9f3e 54b8 7bbe
000001d0: e203 93be 1e11 b7bd d5d1 413e 553a 94bd
000001e0: 0971 ddbd fbe1 a4bd a277 18be 2835 b7bb
000001f0: 1cb6 26bd 022e 873c eb58 1a3d 4b5d 4dbe
00000200: ca3e 94bb 3fd0 66bc fa8d a3bc 9748 733a
00000210: b02a e73b 7fd3 4f3a 700c eb3c 4050 e0bb
00000220: 5c9d aebb d955 8f3b b624 8c3c 1370 3abc
00000230: 2037 eebb 2a0e 27bc 004e 3b3c 217b 37bb
00000240: 4a2b 8fbc 9484 1cbb df13 9c3c 89b9 7abc
00000250: 32ae ae3b 45a1 cfbc 008d 343c aa86 1fbc
00000260: 1cd7 21bc 735b 82bc 54ea db3b bb2d 223b
00000270: 4711 29bb d687 793c 225e c3bb e41c 2e3c
00000280: e4b1 0b3e 800b 8cbd a887 2bbe 9bf5 523e
00000290: 3a72 b5bc 726e 52bb 5e56 9e3d cfc0 173e
000002a0: d4df a33d 00e8 18be feff 513d 5a5a 5ebd
000002b0: cc21 00bf 2ef3 26be 7106 87be e616 1f3e
000002c0: 5bdf 9e3d 7a9d de3e 50ea 3fbd 0299 8b3c
000002d0: 7eeb 7bbe 288d 823a 3ad1 a43e de38 81bd
000002e0: 605a 363e abdd d6be 9685 a7be 30a8 a13d
000002f0: ee0e d83d 4043 50bd 3bc7 07be 00ee a9be
00000300: 69b2 8dbe 88f6 dabd 8ff4 d13c 0cd7 82be
00000310: 3120 b6bd 0c1e b83d 7237 30bc 94f4 b0bd
00000320: 3c31 17be 95df 33be 6a93 67be 692f 603e
00000330: 37a9 09be bc9e 213d 4160 d5bd 2880 28be
00000340: 43ec 0cbd 5887 e73e b275 9b3d 53c5 673d
00000350: 7fcc d0b7 a8c1 6abc 7e1a ff3c 0c7a b1bd
00000360: 65ea 7ebe 18a6 6dbe bd38 99be 0684 a7bd
00000370: 7293 fb3d 3f6d b7bc c8b3 653e 1faf 74be
00000380: 7df6 0fbd 39e4 693c 219c d1bc 19f3 0cbd
00000390: 248b 053b db2b f63c c571 043e 6539 a0bd
000003a0: 3648 2e3e 40ea 593c 48d1 293e 5e36 0cbe
000003b0: 2709 b9be a54e 3d3d 2b52 45bc ba7b 05be
000003c0: cc60 d5bd 0685 8d3d bfa1 6f3e a552 a8bd
000003d0: a929 4fbe 6c1a 3dbe 9530 febd c16b 8ebe
000003e0: c0f1 a2bd 78b4 273e a85f 4cbd 67b5 be3d
000003f0: e86a 3b3d 0195 133d 4356 54bd 01c9 313e
-0.06847483 0.30798343 -0.19615605 -0.14714597 -0.3184199 -0.06869296 0.042653758 -0.0038281463
0.041367743 -0.20553243 -0.5226276 0.030114565 -0.23384902 0.17561586 0.10765993 -0.09134887
0.022109566 -0.08859743 0.016697852 -0.1606842 0.17127404 -0.25214767 0.11418907 -0.079235256
-0.19793916 0.016882118 -0.10070617 -0.17806374 0.029575804 0.041072007 0.031775545 0.14119895
0.11595 -0.09156562 0.111190945 -0.12486696 -0.09261322 0.4400339 0.04973423 0.0033998857
-0.17111328 -0.090741105 0.12273607 -0.010632143 -0.020681683 -0.1823154 0.014682705 -0.092124194
-0.2017592 0.29025587 -0.21440935 0.11043176 0.5373459 0.11666079 0.21560334 -0.023866598
-0.17061165 -0.29785943 -0.122670524 -0.03130609 0.19063027 -0.08607218 0.003101081 -0.2041113
0.23266786 0.18870129 -0.18056683 -0.08396614 -0.35239738 -0.39389837 0.043482333 -0.039239515
0.024711497 -0.122403875 -0.3325238 -0.052035328 0.04722321 0.06974227 0.120664105 0.059863143
-0.09494243 0.23927732 -0.07506181 -0.22635499 0.11133008 -0.13502139 0.18895751 0.028012699
-0.1461423 -0.42439342 -0.053656556 -0.16835874 0.10261316 -0.442788 0.3444733 -0.20280923
-0.24166757 0.09948654 -0.15300292 0.15430617 -0.23710115 0.15442377 0.15670218 0.08107791
-0.0825763 -0.16252828 -0.034578554 0.011955829 0.09083919 -0.089698605 -0.1013367 0.04708694
0.35116634 0.18811041 0.311181 -0.24582034 -0.287139 -0.08938812 0.18927701 -0.072376885
-0.10812575 -0.08050915 -0.14889386 -0.0055910535 -0.040701017 0.01650143 0.037682455 -0.2005512
-0.0045240866 -0.014087736 -0.01996516 0.0009280531 0.0070546493 0.0007927939 0.028692454 -0.006845504
-0.0053288173 0.0043742475 0.017107349 -0.01137926 -0.007269755 -0.010196248 0.011432171 -0.0027996975
-0.017476697 -0.0023882734 0.019052444 -0.015303024 0.0053308243 -0.025345454 0.011019945 -0.009736696
-0.009877946 -0.015912747 0.0067112837 0.0024746496 -0.0025797652 0.01523014 -0.0059621492 0.010627005
0.13642079 -0.06838131 -0.16750968 0.20601504 -0.022149194 -0.0032109288 0.07731317 0.14819644
0.08001676 -0.14932251 0.051269524 -0.054285385 -0.5005157 -0.16303703 -0.26372102 0.15536079
0.077574454 0.4347952 -0.046854317 0.017040733 -0.24601552 0.0009960281 0.32190877 -0.06309675
0.17807913 -0.41965994 -0.32719105 0.07893407 0.105497226 -0.050845385 -0.13259594 -0.33189392
-0.2767518 -0.10691553 0.02562931 -0.25554693 -0.08892859 0.08990106 -0.010755407 -0.086403996
-0.14764875 -0.17565759 -0.22614828 0.21893086 -0.13443457 0.03945802 -0.104187496 -0.16455138
-0.034405004 0.45220447 0.07590808 0.056584667 -2.4890758e-05 -0.014328398 0.031140562 -0.08665857
-0.24894102 -0.23207891 -0.299261 -0.08179478 0.12283982 -0.02239096 0.22431862 -0.23894928
-0.03514718 0.014275604 -0.025587143 -0.034411523 0.0020377124 0.030050209 0.12934025 -0.07823447
0.17019734 0.013300478 0.1658374 -0.13692614 -0.36139795 0.04621758 -0.012043516 -0.13035479
-0.10418853 0.06910138 0.23401545 -0.08218888 -0.20230736 -0.1846711 -0.1241161 -0.27816585
-0.079562664 0.16377437 -0.049895912 0.093119435 0.04575625 0.036030773 -0.051840078 0.17361833

context_transformer_0/ffn_layer_3/intermediate_dense/einsum/Einsum;context_transformer_0/ffn_layer_3/intermediate_dense/Relu;context_transformer_0/ffn_layer_3/intermediate_dense/add f4 [32]
00000000: ba99 e7bd 270c 15be 8211 0abe 1ada 1fbe
00000010: 1c86 96be 7d2a aebd a120 87be 3ec9 983d
00000020: 0543 dc3d 3206 c13d f7b0 49be 0503 d5bd
00000030: 141c f13c 5f59 62be 28e0 93bd e112 9fbe
00000040: 7e3b 0ebe 5ee0 29be 46af 14be 31bd 87bd
00000050: d75d 58be 6d7e 00bf 91f1 00be 1844 96bd
00000060: 8a38 7ebd c011 84bd ec41 a9be 806c 84bd
00000070: 616e 94be 11f5 31bd 35d7 a6be 4744 41be
-0.11308618 -0.14555417 -0.13483241 -0.15610543 -0.29399192 -0.08504198 -0.2639208 0.07460259
0.107549705 0.0942501 -0.19696413 -0.104009666 0.029432334 -0.22104405 -0.07220489 -0.3106909
-0.13889882 -0.16589496 -0.14519987 -0.06627882 -0.21129547 -0.5019291 -0.1259215 -0.073372066
-0.06206564 -0.06448698 -0.33058107 -0.06466007 -0.28990462 -0.043446604 -0.32586065 -0.18873702
